Data dimensions: (24935, 46)
Model: "Initial_model"
_________________________________________________________________
Layer (type)                 Output Shape              Param #   
=================================================================
dense (Dense)                (None, 512)               22528     
_________________________________________________________________
dense_1 (Dense)              (None, 512)               262656    
_________________________________________________________________
dense_2 (Dense)              (None, 256)               131328    
_________________________________________________________________
dense_3 (Dense)              (None, 256)               65792     
_________________________________________________________________
dense_4 (Dense)              (None, 128)               32896     
_________________________________________________________________
dense_5 (Dense)              (None, 1)                 129       
=================================================================
Total params: 515,329
Trainable params: 515,329
Non-trainable params: 0
_________________________________________________________________
Epoch 1/200
 1/20 [>.............................] - ETA: 0s - loss: 11264.4014 2/20 [==>...........................] -
…
20/20 [==============================] - ETA: 0s - loss: 700.635720/20 [==============================] - 2s 97ms/step - loss: 700.6357 - val_loss: 1212.1776
38.50% : Share of forecasts within 5% absolute error

1212   : Mean absolute error 

10.52% : Mean absolute percentage error

Model: "Dropout"
_________________________________________________________________
Layer (type)                 Output Shape              Param #   
=================================================================
dense (Dense)                (None, 512)               22528     
_________________________________________________________________
dropout (Dropout)            (None, 512)               0         
_________________________________________________________________
dense_1 (Dense)              (None, 512)               262656    
_________________________________________________________________
dropout_1 (Dropout)          (None, 512)               0         
_________________________________________________________________
dense_2 (Dense)              (None, 256)               131328    
_________________________________________________________________
dropout_2 (Dropout)          (None, 256)               0         
_________________________________________________________________
dense_3 (Dense)              (None, 256)               65792     
_________________________________________________________________
dropout_3 (Dropout)          (None, 256)               0         
_________________________________________________________________
dense_4 (Dense)              (None, 128)               32896     
_________________________________________________________________
dense_5 (Dense)              (None, 1)                 129       
=================================================================
Total params: 515,329
Trainable params: 515,329
Non-trainable params: 0
_________________________________________________________________
Epoch 1/200
 1/20 [>.............................] - ETA: 0s - loss: 11264.5771 2/20 [==>...........................] -
…
20/20 [==============================] - ETA: 0s - loss: 1271.728620/20 [==============================] - 3s 152ms/step - loss: 1271.7286 - val_loss: 1150.6459
38.04% : Share of forecasts within 5% absolute error

1151   : Mean absolute error 

9.91% : Mean absolute percentage error

Model: "Batchnorm"
_________________________________________________________________
Layer (type)                 Output Shape              Param #   
=================================================================
dense (Dense)                (None, 512)               22528     
_________________________________________________________________
batch_normalization (BatchNo (None, 512)               2048      
_________________________________________________________________
dropout (Dropout)            (None, 512)               0         
_________________________________________________________________
dense_1 (Dense)              (None, 512)               262656    
_________________________________________________________________
batch_normalization_1 (Batch (None, 512)               2048      
_________________________________________________________________
dropout_1 (Dropout)          (None, 512)               0         
_________________________________________________________________
dense_2 (Dense)              (None, 256)               131328    
_________________________________________________________________
batch_normalization_2 (Batch (None, 256)               1024      
_________________________________________________________________
dropout_2 (Dropout)          (None, 256)               0         
_________________________________________________________________
dense_3 (Dense)              (None, 256)               65792     
_________________________________________________________________
batch_normalization_3 (Batch (None, 256)               1024      
_________________________________________________________________
dropout_3 (Dropout)          (None, 256)               0         
_________________________________________________________________
dense_4 (Dense)              (None, 128)               32896     
_________________________________________________________________
dense_5 (Dense)              (None, 1)                 129       
=================================================================
Total params: 521,473
Trainable params: 518,401
Non-trainable params: 3,072
_________________________________________________________________
Epoch 1/200
 1/20 [>.............................] - ETA: 0s - loss: 11266.3408 2/20 [==>..........................
…
