Case #1: 4.6666666667
4.6666666667
Case #2: 355.0750000000
355.0750000000
Data dimensions: (24935, 46)
Model: "Initial_model"
_________________________________________________________________
Layer (type)                 Output Shape              Param #   
=================================================================
dense (Dense)                (None, 512)               22528     
_________________________________________________________________
dense_1 (Dense)              (None, 512)               262656    
_________________________________________________________________
dense_2 (Dense)              (None, 256)               131328    
_________________________________________________________________
dense_3 (Dense)              (None, 256)               65792     
_________________________________________________________________
dense_4 (Dense)              (None, 128)               32896     
_________________________________________________________________
dense_5 (Dense)              (None, 1)                 129       
=================================================================
Total params: 515,329
Trainable params: 515,329
Non-trainable params: 0
_________________________________________________________________
Epoch 1/200
 1/20 [>.............................] - ETA: 0s - loss: 11264.4014 2/20 [==>...........................] -
…
